…
   "metadata": {},
   "outputs": [
    {
     "name": "stdout",
     "output_type": "stream",
     "text": [
      "Found 53 images belonging to 3 classes.\n",
      "Found 13 images belonging to 3 classes.\n",
      "Found 251 images belonging to 3 classes.\n",
      "(32, 256, 256, 1) (32, 3)\n",
      "Model: \"sequential\"\n",
      "_________________________________________________________________\n",
      "Layer (type)                 Output Shape              Param #   \n",
      "=================================================================\n",
      "conv2d (Conv2D)              (None, 84, 84, 5)         130       \n",
      "_________________________________________________________________\n",
      "max_pooling2d (MaxPooling2D) (None, 42, 42, 5)         0         \n",
      "_________________________________________________________________\n",
      "dropout (Dropout)            (None, 42, 42, 5)         0         \n",
      "_________________________________________________________________\n",
      "conv2d_1 (Conv2D)            (None, 40, 40, 3)         138       \n",
      "_________________________________________________________________\n",
      "max_pooling2d_1 (MaxPooling2 (None, 20, 20, 3)         0         \n",
      "_________________________________________________________________\n",
      "dropout_1 (Dropout)          (None, 20, 20, 3)         0         \n",
      "_________________________________________________________________\n",
      "conv2d_2 (Conv2D)            (None, 18, 18, 3)         84        \n",
      "_________________________________________________________________\n",
      "conv2d_3 (Conv2D)            (None, 18, 18, 1)         4         \n",
      "_________________________________________________________________\n",
      "dropout_2 (Dropout)          (None, 18, 18, 1)         0         \n",
      "_________________________________________________________________\n",
      "flatten (Flatten)            (None, 324)               0         \n",
      "_________________________________________________________________\n",
      "dense (Dense)                (None, 3)                 975       \n",
      "=================================================================\n",
      "Total params: 1,331\n",
      "Trainable params: 1,331\n",
      "Non-trainable params: 0\n",
      "_________________________________________________________________\n",
      "Epoch 1/5\n",
      "7/7 [==============================] - 7s 660ms/step - loss: 1.0989 - categorical_accuracy: 0.3586 - auc: 0.4672 - val_loss: 1.0981 - val_categorical_accuracy: 0.3962 - val_auc: 0.4769\n",
…
